/* Google font import */
@import url('https://fonts.googleapis.com/css2?family=Inter:wght@400;500;600;700;800&display=swap');

/* ===== CAREERSAGE CREAM + GLASS THEME ===== */
:root {
    --bg-primary: #FFF8F0;
    --bg-secondary: #FAF5EE;
    --bg-tertiary: #F5EFEA;
    --glass-bg: rgba(255, 255, 255, 0.65);
    --glass-border: rgba(0, 0, 0, 0.06);
    --glass-shadow: 0 8px 32px rgba(0, 0, 0, 0.06);
    --glass-blur: blur(20px);
    --text-primary: #1E293B;
    --text-secondary: #475569;
    --text-muted: #64748B;
    --text-faint: #94A3B8;
    --accent-primary: #059669;
    --accent-primary-light: #10B981;
    --accent-secondary: #6366F1;
    --accent-secondary-light: #818CF8;
    --accent-purple: #7C3AED;
    --accent-amber: #F59E0B;
    --border-light: rgba(0, 0, 0, 0.06);
    --border-medium: rgba(0, 0, 0, 0.1);
}

/* Basic body style */
html, body {
    font-family: 'Inter', sans-serif;
    margin: 0;
    padding: 0;
    background-color: var(--bg-primary);
    color: var(--text-primary);
    min-height: 100vh;
}

/* Main content area fills edge-to-edge between fixed header and footer */
main {
    padding-top: 64px;   /* sits right under the fixed header */
    padding-bottom: 60px; /* sits right above the fixed footer */
    min-height: 100vh;
    background-color: var(--bg-primary);
}

/* When main is fixed-positioned (e.g. roadmap-visual), remove the duplicate padding */
main[style*="top:"], main[style*="top: "] {
    padding-top: 0 !important;
    padding-bottom: 0 !important;
    min-height: 0 !important;
}


/* --- SHARED STYLES FOR ALL PAGES --- */

/* Dropdown Menu (Header) */
.dropdown-content {
  display: none;
  position: absolute;
  top: 100%;
  left: 0;
  min-width: 180px;
  padding: 6px;
  margin-top: 8px;
  z-index: 100;
  opacity: 0;
  transform: translateY(-6px);
  transition: opacity 0.2s ease, transform 0.2s ease;
  background: rgba(255,255,255,0.95);
  backdrop-filter: blur(20px);
  -webkit-backdrop-filter: blur(20px);
  border: 1px solid rgba(0,0,0,0.08);
  border-radius: 14px;
  box-shadow: 0 12px 40px rgba(0,0,0,0.1), 0 0 0 1px rgba(0,0,0,0.03);
}
.dropdown-content a {
    color: var(--text-secondary);
    padding: 10px 14px;
    text-decoration: none;
    display: flex;
    align-items: center;
    gap: 10px;
    border-radius: 10px;
    font-size: 13px;
    transition: all 0.2s ease;
}
.dropdown-content a:hover {
    background: rgba(5, 150, 105, 0.08);
    color: var(--text-primary);
}
.show {
    display: block !important;
    opacity: 1 !important;
    transform: translateY(0) !important;
}

/* Custom Scrollbar */
::-webkit-scrollbar { width: 8px; }
::-webkit-scrollbar-track { background: var(--bg-secondary); }
::-webkit-scrollbar-thumb { background: rgba(0, 0, 0, 0.1); border-radius: 4px; }
::-webkit-scrollbar-thumb:hover { background: rgba(0, 0, 0, 0.18); }

/* --- Reusable Glassmorphism Card --- */
.cs-card {
    background: var(--glass-bg);
    backdrop-filter: var(--glass-blur);
    -webkit-backdrop-filter: var(--glass-blur);
    border: 1px solid var(--glass-border);
    border-radius: 16px;
    box-shadow: var(--glass-shadow);
    transition: border-color 0.25s ease, box-shadow 0.25s ease;
}
.cs-card:hover {
    border-color: rgba(0, 0, 0, 0.12);
    box-shadow: 0 12px 40px rgba(0, 0, 0, 0.08);
}
/* Input fields matching the theme */
.cs-input {
    background: rgba(255, 255, 255, 0.5);
    border: 1px solid var(--glass-border);
    border-radius: 10px;
    color: var(--text-primary);
    transition: border-color 0.2s ease;
}
.cs-input:focus {
    border-color: rgba(5, 150, 105, 0.4);
    outline: none;
    box-shadow: 0 0 0 3px rgba(5, 150, 105, 0.1);
}

/* Navbar glass pill */
.navbar-glass {
    background: var(--glass-bg) !important;
    backdrop-filter: var(--glass-blur) !important;
    -webkit-backdrop-filter: var(--glass-blur) !important;
    border: 1px solid var(--glass-border) !important;
    border-radius: 999px;
}


/* --- LANDING PAGE (index.html) SPECIFIC STYLES --- */

/* Animated Gradient Background */
.animated-gradient {
    background: linear-gradient(-45deg, #0d1117, #131a2e, #0d1117, #1a1530);
    background-size: 400% 400%;
    animation: gradient 15s ease infinite;
}
@keyframes gradient {
    0% { background-position: 0% 50%; }
    50% { background-position: 100% 50%; }
    100% { background-position: 0% 50%; }
}


/* --- ROADMAPS PAGE (roadmaps.html) SPECIFIC STYLES --- */

.side-nav-link.active {
    color: white;
    font-weight: 600;
    background-color: #1f2937; /* A slightly lighter dark blue */
}


/* --- AISENSIE PAGE (aisensie.html) SPECIFIC STYLES --- */

/* Sidebar Active Link (Light Theme) */
.sidebar-link.active {
    background-color: #eff6ff; /* light blue */
    color: #2563eb; /* blue */
    font-weight: 600;
}

/* Checkbox Section Animation */
#questions-section {
    max-height: 0;
    overflow: hidden;
    transition: max-height 0.5s ease-in-out, margin-top 0.5s ease-in-out;
}
#questions-section.open {
    max-height: 500px; /* Adjust as needed */
    margin-top: 2rem;
}


/* ===== FLOWCHART VISUAL ROADMAP STYLES ===== */

.flowchart-container {
    position: relative;
    width: 100%;
    min-height: 1800px;
    background: #0a0e17;
    border-radius: 12px;
    padding: 40px;
    overflow-x: auto;
}

.flowchart-canvas {
    position: relative;
    min-width: 1100px;
    min-height: 1800px;
    margin: 0 auto;
}

/* SVG Lines for connections */
.flowchart-canvas svg {
    position: absolute;
    top: 0;
    left: 0;
    width: 100%;
    height: 100%;
    pointer-events: none;
    z-index: 1;
}

/* Flowchart Nodes */
.flowchart-node {
    position: absolute;
    padding: 14px 20px;
    border-radius: 10px;
    border: 2px solid;
    background: #0f172a;
    color: #1E293B;
    cursor: pointer;
    transition: all 0.3s ease;
    box-shadow: 0 4px 12px rgba(0, 0, 0, 0.3);
    font-weight: 600;
    font-size: 0.9rem;
    text-align: center;
    min-width: 160px;
    z-index: 10;
    transform: translate(-50%, 0);
}

.flowchart-node:hover {
    transform: translate(-50%, -4px);
    box-shadow: 0 8px 20px rgba(0, 0, 0, 0.15);
    z-index: 20;
}

/* Node Types */
.flowchart-node.required { 
    border-color: #8b5cf6; 
    background: rgba(139, 92, 246, 0.08);
    color: #c4b5fd;
}

.flowchart-node.recommended { 
    border-color: #22d3ee; 
    background: rgba(34, 211, 238, 0.08);
    color: #a5f3fc;
}

.flowchart-node.alternative { 
    border-color: #f97316; 
    background: rgba(249, 115, 22, 0.08);
    color: #fdba74;
}

.flowchart-node.anytime { 
    border-color: #6b7280; 
    background: rgba(107, 114, 128, 0.08);
    color: #d1d5db;
}

/* Completed state */
.flowchart-node.completed {
    opacity: 0.65;
    background: rgba(34, 197, 94, 0.1) !important;
}

.flowchart-node.completed::after {
    content: '✓';
    position: absolute;
    top: -10px;
    right: -10px;
    background: #10b981;
    color: white;
    width: 26px;
    height: 26px;
    border-radius: 50%;
    display: flex;
    align-items: center;
    justify-content: center;
    font-size: 15px;
    font-weight: bold;
    box-shadow: 0 2px 8px rgba(16, 185, 129, 0.4);
}

/* Tooltip for node details */
.flowchart-tooltip {
    position: absolute;
    background: #1f2937;
    color: white;
    padding: 12px;
    border-radius: 8px;
    font-size: 0.85rem;
    max-width: 240px;
    z-index: 100;
    box-shadow: 0 10px 25px rgba(0, 0, 0, 0.3);
    pointer-events: none;
    opacity: 0;
    transition: opacity 0.2s, transform 0.2s;
    transform: translateY(10px);
}

.flowchart-tooltip.show {
    opacity: 1;
    transform: translateY(0);
}

.flowchart-tooltip h4 {
    font-weight: 700;
    margin-bottom: 8px;
    font-size: 1rem;
}

.flowchart-tooltip ul {
    list-style: none;
    padding: 0;
    margin: 8px 0 0 0;
}

.flowchart-tooltip li {
    padding: 4px 0;
    padding-left: 16px;
    position: relative;
}

.flowchart-tooltip li::before {
    content: '•';
    position: absolute;
    left: 0;
    color: #60a5fa;
}

/* Connection lines */
.connection-line {
    stroke: #d1d5db;
    stroke-width: 3;
    fill: none;
}

/* Legend styles improvement */
.flowchart-legend {
    display: flex;
    justify-content: center;
    gap: 24px;
    margin-bottom: 30px;
    flex-wrap: wrap;
    padding: 16px;
    background: #0f172a;
    border-radius: 10px;
    border: 1px solid rgba(0,0,0,0.1);
}

.flowchart-legend-item {
    display: flex;
    align-items: center;
    gap: 8px;
    font-size: 0.9rem;
    font-weight: 600;
    color: #c9d1d9;
}

.flowchart-legend-box {
    width: 20px;
    height: 20px;
    border-radius: 5px;
    border: 3px solid;
}

.flowchart-legend-box.required {
    background: rgba(139, 92, 246, 0.15);
    border-color: #8b5cf6;
}

.flowchart-legend-box.recommended {
    background: rgba(34, 211, 238, 0.15);
    border-color: #22d3ee;
}

.flowchart-legend-box.alternative {
    background: rgba(249, 115, 22, 0.15);
    border-color: #f97316;
}

.flowchart-legend-box.anytime {
    background: rgba(107, 114, 128, 0.15);
    border-color: #6b7280;
}

/* Responsive adjustments */
@media (max-width: 768px) {
    .flowchart-container {
        padding: 20px;
    }
    
    .flowchart-node {
        font-size: 0.8rem;
        padding: 12px 16px;
        min-width: 140px;
    }
}

/* === New Grid Layout Styles (Vanilla Guide) === */

#roadmap-container {
  position: relative;
  width: 100%;
  height: 100%;
  overflow: auto;
  border-radius: 12px;

  /* Cream dot grid background */
  background-color: #FAF5EE;
  background-image: radial-gradient(rgba(5, 150, 105, 0.1) 1px, transparent 1px);
  background-size: 24px 24px;
}

.custom-scrollbar::-webkit-scrollbar {
  width: 6px;
}
.custom-scrollbar::-webkit-scrollbar-track {
  background: transparent;
}
.custom-scrollbar::-webkit-scrollbar-thumb {
  background-color: rgba(0, 0, 0, 0.08);
  border-radius: 20px;
}

/* === Node Widget Cards === */

.node-widget {
  position: absolute;
  width: 280px;
  height: 140px;
  background: linear-gradient(145deg, rgba(255,255,255,0.75) 0%, rgba(250,245,238,0.8) 100%);
  border: 1px solid rgba(0, 0, 0, 0.08);
  border-radius: 16px;
  box-shadow: 0 4px 24px rgba(0, 0, 0, 0.06), inset 0 1px 0 rgba(255,255,255,0.5);
  z-index: 10;
  transition: all 0.3s cubic-bezier(0.4, 0, 0.2, 1);
  cursor: pointer;
  padding: 16px 18px 12px 18px;
  display: flex;
  flex-direction: column;
  justify-content: space-between;
  overflow: hidden;
  backdrop-filter: blur(10px);
}

.node-widget::before {
  content: "";
  position: absolute;
  top: 0; left: 0; right: 0;
  height: 3px;
  background: linear-gradient(90deg, #8b5cf6, #6366f1, #8b5cf6);
  border-radius: 16px 16px 0 0;
}

.node-widget:hover {
  transform: translateY(-4px) scale(1.02);
  box-shadow: 0 8px 40px rgba(5, 150, 105, 0.12), inset 0 1px 0 rgba(255,255,255,0.8);
  border-color: rgba(5, 150, 105, 0.2);
}

.node-widget.recommended::before {
  background: linear-gradient(90deg, #06b6d4, #22d3ee, #06b6d4);
}

.node-widget.recommended {
  border-color: rgba(6, 182, 212, 0.2);
}

.node-widget.recommended:hover {
  box-shadow: 0 8px 40px rgba(6, 182, 212, 0.12), inset 0 1px 0 rgba(255,255,255,0.8);
  border-color: rgba(6, 182, 212, 0.3);
}

/* Completed state — green glow */
.node-widget.completed::before {
  background: linear-gradient(90deg, #16a34a, #22c55e, #16a34a);
}

.node-widget.completed {
  border-color: rgba(34, 197, 94, 0.3);
  background: linear-gradient(145deg, rgba(240, 253, 244, 0.9) 0%, rgba(250,245,238,0.8) 100%);
  box-shadow: 0 0 20px rgba(34, 197, 94, 0.1), 0 4px 24px rgba(0,0,0,0.06);
}

.node-widget.completed:hover {
  box-shadow: 0 0 30px rgba(34, 197, 94, 0.25), 0 8px 40px rgba(34, 197, 94, 0.15);
}

/* In-progress state — amber pulse */
.node-widget.in-progress::before {
  background: linear-gradient(90deg, #f59e0b, #fbbf24, #f59e0b);
}

.node-widget.in-progress {
  border-color: rgba(245, 158, 11, 0.3);
  animation: widgetPulse 2.5s ease-in-out infinite;
}

@keyframes widgetPulse {
  0%, 100% { box-shadow: 0 0 0 0 rgba(245, 158, 11, 0.2), 0 4px 24px rgba(0,0,0,0.4); }
  50% { box-shadow: 0 0 20px 4px rgba(245, 158, 11, 0.15), 0 4px 24px rgba(0,0,0,0.4); }
}

.node-widget.dragging {
  opacity: 0.85;
  z-index: 100;
  cursor: grabbing !important;
}

/* Step number circle */
.node-widget .node-step {
  position: absolute;
  top: -12px;
  left: -12px;
  width: 28px;
  height: 28px;
  border-radius: 50%;
  background: linear-gradient(135deg, #8b5cf6, #6366f1);
  color: white;
  font-size: 0.75rem;
  font-weight: 800;
  display: flex;
  align-items: center;
  justify-content: center;
  border: 3px solid #0d1117;
  z-index: 12;
  box-shadow: 0 2px 8px rgba(139, 92, 246, 0.4);
}

.node-widget.recommended .node-step {
  background: linear-gradient(135deg, #06b6d4, #22d3ee);
  box-shadow: 0 2px 8px rgba(6, 182, 212, 0.4);
}

.node-widget.completed .node-step {
  background: linear-gradient(135deg, #16a34a, #22c55e);
  box-shadow: 0 2px 8px rgba(34, 197, 94, 0.4);
}

.node-widget.completed .node-step::after {
  content: "✓";
}

.node-widget.in-progress .node-step {
  background: linear-gradient(135deg, #f59e0b, #fbbf24);
  box-shadow: 0 2px 8px rgba(245, 158, 11, 0.4);
  animation: stepPulse 2s ease-in-out infinite;
}

@keyframes stepPulse {
  0%, 100% { box-shadow: 0 2px 8px rgba(245, 158, 11, 0.4); }
  50% { box-shadow: 0 0 14px 4px rgba(245, 158, 11, 0.5); }
}

/* Header */
.node-header {
  display: flex;
  flex-direction: column;
  gap: 4px;
}

.node-widget .node-title {
  font-weight: 700;
  font-size: 0.9rem;
  color: var(--text-primary);
  line-height: 1.3;
  white-space: nowrap;
  overflow: hidden;
  text-overflow: ellipsis;
}

.node-widget.completed .node-title {
  color: var(--accent-primary);
}

.node-widget .node-time {
  font-size: 0.7rem;
  color: #64748B;
  display: flex;
  align-items: center;
  gap: 4px;
}

/* Topic tags */
.node-tags {
  display: flex;
  flex-wrap: wrap;
  gap: 4px;
  margin-top: 4px;
}

.node-tag {
  font-size: 0.6rem;
  font-weight: 500;
  padding: 2px 8px;
  border-radius: 999px;
  background: rgba(139, 92, 246, 0.1);
  color: #a78bfa;
  border: 1px solid rgba(139, 92, 246, 0.15);
  white-space: nowrap;
  max-width: 100px;
  overflow: hidden;
  text-overflow: ellipsis;
}

.node-widget.recommended .node-tag {
  background: rgba(6, 182, 212, 0.1);
  color: #67e8f9;
  border-color: rgba(6, 182, 212, 0.15);
}

.node-tag.more {
  background: rgba(255,255,255, 0.05);
  color: #64748b;
  border-color: rgba(255,255,255, 0.1);
}

/* Type badge */
.node-type-badge {
  position: absolute;
  bottom: 10px;
  right: 12px;
  font-size: 0.55rem;
  font-weight: 700;
  padding: 2px 8px;
  border-radius: 4px;
  letter-spacing: 0.08em;
}

.node-type-badge.required {
  background: rgba(139, 92, 246, 0.15);
  color: #a78bfa;
}

.node-type-badge.recommended {
  background: rgba(6, 182, 212, 0.15);
  color: #67e8f9;
}

/* === Pipe Connector Lines (GitHub Actions style) === */
.pipe-line {
  position: absolute;
  width: 3px;
  background: rgba(0, 0, 0, 0.1);
  z-index: 5;
  border-radius: 2px;
}

.pipe-line.completed {
  background: #22c55e;
  box-shadow: 0 0 8px rgba(34, 197, 94, 0.4);
}

.pipe-line.in-progress {
  background: linear-gradient(180deg, #22c55e 0%, #f59e0b 100%);
  box-shadow: 0 0 6px rgba(245, 158, 11, 0.3);
}

/* SVG Connection Layer */
#connections {
  position: absolute;
  top: 0;
  left: 0;
  width: 100%;
  height: 100%;
  z-index: 1;
  pointer-events: none;
}

/* === Quiz Panel Styles === */

.quiz-question-block {
  border: 1px solid rgba(0,0,0,0.06);
}

.quiz-option {
  cursor: pointer;
}

.quiz-option:disabled {
  cursor: default;
  pointer-events: none;
}

.quiz-option.border-green-500 {
  border-color: #22c55e !important;
  background: rgba(34, 197, 94, 0.15) !important;
  color: #86efac !important;
}

.quiz-option.border-red-500 {
  border-color: #ef4444 !important;
  background: rgba(239, 68, 68, 0.15) !important;
  color: #fca5a5 !important;
}

.quiz-option.border-blue-500 {
  border-color: #3b82f6 !important;
  background: rgba(59, 130, 246, 0.15) !important;
}

#panel-quiz-score {
  animation: scoreReveal 0.4s ease-out;
}

@keyframes scoreReveal {
  from {
    opacity: 0;
    transform: scale(0.8);
  }
  to {
    opacity: 1;
    transform: scale(1);
  }
}

#panel-search-btn:disabled {
  opacity: 0.6;
  cursor: not-allowed;
}

@keyframes spin {
  from { transform: rotate(0deg); }
  to { transform: rotate(360deg); }
}

.animate-spin {
  animation: spin 1s linear infinite;
}

/* ===== RESPONSIVE / MOBILE STYLES ===== */

/* Mobile notification dropdown */
@media (max-width: 767px) {
  #notifDropdown {
    position: fixed;
    top: 64px;
    left: 8px;
    right: 8px;
    min-width: auto;
    max-height: 50vh;
  }
  #accountDropdown {
    position: fixed;
    top: 64px;
    right: 8px;
    min-width: 180px;
  }

  /* Aisensie page */
  .max-w-3xl { max-width: 100%; }

  /* Dashboard grid */
  #roadmaps-grid {
    grid-template-columns: 1fr !important;
  }

  /* Roadmap visual: hide sidebar on mobile */
  aside.w-60 {
    display: none !important;
  }

  /* Skill battle page adjustments */
  .skill-battle-container {
    padding: 1rem !important;
  }
}

/* General page responsive spacing */
@media (max-width: 640px) {
  main {
    padding-bottom: 48px; /* smaller footer on mobile */
  }
  h1.text-5xl {
    font-size: 1.875rem; /* text-3xl equivalent */
  }
  h1.text-4xl {
    font-size: 1.5rem; /* text-2xl equivalent */
  }

  /* Skill test page */
  .st-card-inner {
    padding: 1rem;
  }
  .st-option {
    padding: 0.625rem 0.75rem;
    gap: 0.625rem;
    font-size: 0.875rem;
  }

  /* Skill battle page */
  .battle-card {
    padding: 1rem !important;
  }

  /* Roadmap visual: node detail panel */
  #node-detail-panel {
    width: 100% !important;
    max-width: 100% !important;
  }
}

/* ===== SKELETON LOADING STYLES ===== */

/* Shimmer animation */
@keyframes shimmer {
  0% { background-position: -400px 0; }
  100% { background-position: 400px 0; }
}

.skeleton {
  background: linear-gradient(90deg, rgba(0,0,0,0.04) 25%, rgba(0,0,0,0.08) 50%, rgba(0,0,0,0.04) 75%);
  background-size: 800px 100%;
  animation: shimmer 1.5s infinite ease-in-out;
  border-radius: 8px;
}

.skeleton-text {
  height: 14px;
  width: 100%;
  margin-bottom: 8px;
}

.skeleton-text.short { width: 60%; }
.skeleton-text.medium { width: 80%; }
.skeleton-text.tiny { width: 40%; }

.skeleton-title {
  height: 24px;
  width: 50%;
  margin-bottom: 16px;
}

.skeleton-circle {
  border-radius: 50%;
}

.skeleton-card {
  background: rgba(255,255,255,0.03);
  border: 1px solid rgba(0,0,0,0.06);
  border-radius: 16px;
  padding: 20px;
  min-height: 120px;
}

.skeleton-node {
  width: 280px;
  height: 140px;
  background: linear-gradient(145deg, #1a1f35 0%, #0f1525 100%);
  border: 1px solid rgba(139, 92, 246, 0.1);
  border-radius: 16px;
  padding: 16px;
  position: absolute;
}

/* ===== NODE REVEAL ANIMATION ===== */

@keyframes nodeReveal {
  0% {
    opacity: 0;
    transform: translateY(30px) scale(0.9);
    filter: blur(4px);
  }
  60% {
    opacity: 0.8;
    transform: translateY(-4px) scale(1.02);
    filter: blur(0);
  }
  100% {
    opacity: 1;
    transform: translateY(0) scale(1);
    filter: blur(0);
  }
}

@keyframes connectionDraw {
  0% {
    stroke-dashoffset: 300;
    opacity: 0;
  }
  100% {
    stroke-dashoffset: 0;
    opacity: 1;
  }
}

.node-widget {
  opacity: 0;
  animation: nodeReveal 0.6s cubic-bezier(0.34, 1.56, 0.64, 1) forwards;
}

/* Stagger each node — CSS custom property set by JS */
.node-widget[style*="--node-index"] {
  animation-delay: calc(var(--node-index, 0) * 0.12s);
}

/* Connection line draw animation */
#connections path, #connections line {
  stroke-dasharray: 300;
  stroke-dashoffset: 300;
  animation: connectionDraw 0.8s ease forwards;
  animation-delay: calc(var(--conn-index, 0) * 0.1s + 0.5s);
}

/* Pulse glow on newly generated nodes */
@keyframes nodeGlow {
  0%, 100% { box-shadow: 0 4px 24px rgba(0,0,0,0.4); }
  50% { box-shadow: 0 4px 24px rgba(0,0,0,0.4), 0 0 20px rgba(139, 92, 246, 0.2); }
}

.node-widget.just-generated {
  animation: nodeReveal 0.6s cubic-bezier(0.34, 1.56, 0.64, 1) forwards,
             nodeGlow 2s ease-in-out 1s 2;
}

/* ===== SKELETON PAGE TEMPLATES ===== */

/* Dashboard skeleton */
.skeleton-stats-grid {
  display: grid;
  grid-template-columns: repeat(auto-fit, minmax(200px, 1fr));
  gap: 16px;
  margin-bottom: 24px;
}

.skeleton-stat-card {
  background: rgba(255,255,255,0.03);
  border: 1px solid rgba(0,0,0,0.06);
  border-radius: 16px;
  padding: 24px;
  height: 100px;
}

/* Roadmap skeleton nodes */
.skeleton-roadmap {
  position: relative;
  min-height: 600px;
}

.skeleton-roadmap .skeleton-node {
  animation: shimmer 1.5s infinite ease-in-out, nodeReveal 0.5s ease forwards;
}

.skeleton-roadmap .skeleton-node:nth-child(1) { top: 20px; left: calc(50% - 140px); animation-delay: 0s; }
.skeleton-roadmap .skeleton-node:nth-child(2) { top: 200px; left: calc(30% - 140px); animation-delay: 0.15s; }
.skeleton-roadmap .skeleton-node:nth-child(3) { top: 200px; left: calc(70% - 140px); animation-delay: 0.3s; }
.skeleton-roadmap .skeleton-node:nth-child(4) { top: 380px; left: calc(50% - 140px); animation-delay: 0.45s; }
/* Right-aligned dropdowns */
.dropdown-content.right-0 { left: auto !important; right: 0 !important; }
